79/global_autoencoder_physio_kmeans.pt (torch, 4033 bytes, 6 tensors)

encoder.0.weight f4 [1, 7]
0.024100246 -0.11280578 0.34588197 0.27133107 0.3473588 0.23251055 0.15081632
00000000: e16d c53c b706 e7bd 7117 b13e e8eb 8a3e
00000010: 03d9 b13e 3f17 6e3e 986f 1a3e

encoder.4.weight f4 [12, 1]
-0.6091595 -0.3741169 -0.81779253 0.08458124 -0.22664495 0.6856823 -0.88440865 -0.6146697
-0.10140777 -0.8138691 -0.45119104 0.16584148
00000000: e1f1 1bbf 408c bfbe da5a 51bf ee38 ad3d
00000010: 9d15 68be e088 2f3f 9b68 62bf fe5a 1dbf
00000020: e0ae cfbd ba59 50bf 8302 e7be 59d2 293e

encoder.4.bias f4 [12]
-0.69352585 -0.32604435 0.3150547 -0.60996896 -0.5448662 0.41865364 0.24844857 -0.6627191
0.8259832 0.41403073 0.025591489 0.5726193
00000000: e98a 31bf 49ef a6be da4e a13e ed26 1cbf
00000010: 5a7c 0bbf c559 d63e 4d69 7e3e f5a7 29bf
00000020: a373 533f d6fb d33e 3ea5 d13c 2e97 123f

decoder.0.weight f4 [1, 12]
-0.17214845 -0.23759545 0.12875764 -0.14746961 -0.010914487 -0.1547071 0.030220186 -0.15511096
0.05065342 -0.20786701 0.24584712 0.19831298
00000000: af47 30be 394c 73be 0bd9 033e 4602 17be
00000010: add2 32bc 8a6b 1ebe 5390 f73c 68d5 1ebe
00000020: f679 4f3d 17db 54be 59bf 7b3e 8f12 4b3e

decoder.4.weight f4 [7, 1]
0.61589235 -0.4616283 -0.85713714 -0.409149 0.44055882 -0.2901349 -0.5797483
00000000: 1fab 1d3f 8b5a ecbe 576d 5bbf fa7b d1be
00000010: ed90 e13e 908c 94be 626a 14bf

decoder.4.bias f4 [7]
-0.24139981 0.6317765 -0.39844894 -0.1242098 -0.7607258 -0.16384701 -0.52165556
00000000: 8331 77be 1bbc 213f 8001 ccbe b561 febd
00000010: edbe 42bf 83c7 27be 388b 05bf
