142/autoencoder_physio_raw.pt (torch, 4033 bytes, 6 tensors)

encoder.0.weight f4 [1, 7]
0.024100248 -0.11280575 0.34588194 0.27133107 0.34735885 0.2325105 0.1508163
00000000: e26d c53c b306 e7bd 7017 b13e e8eb 8a3e
00000010: 05d9 b13e 3c17 6e3e 976f 1a3e

encoder.4.weight f4 [12, 1]
-0.6091596 -0.3741169 -0.81779265 0.084581256 -0.226645 0.6856823 -0.8844085 -0.6146697
-0.10140777 -0.813869 -0.45119095 0.16584146
00000000: e2f1 1bbf 408c bfbe dc5a 51bf f038 ad3d
00000010: a015 68be e088 2f3f 9868 62bf fe5a 1dbf
00000020: e0ae cfbd b859 50bf 8002 e7be 58d2 293e

encoder.4.bias f4 [12]
-0.6935258 -0.32604432 0.31505477 -0.609969 -0.5448661 0.41865373 0.24844861 -0.66271913
0.82598317 0.4140308 0.025591493 0.5726192
00000000: e88a 31bf 48ef a6be dc4e a13e ee26 1cbf
00000010: 587c 0bbf c859 d63e 5069 7e3e f6a7 29bf
00000020: a273 533f d8fb d33e 40a5 d13c 2c97 123f

decoder.0.weight f4 [1, 12]
-0.17214848 -0.23759545 0.12875764 -0.14746958 -0.010914488 -0.15470706 0.030220183 -0.15511096
0.05065341 -0.207867 0.24584715 0.19831298
00000000: b147 30be 394c 73be 0bd9 033e 4402 17be
00000010: aed2 32bc 876b 1ebe 5190 f73c 68d5 1ebe
00000020: f379 4f3d 16db 54be 5bbf 7b3e 8f12 4b3e

decoder.4.weight f4 [7, 1]
0.6158923 -0.4616282 -0.85713696 -0.40914905 0.4405589 -0.2901349 -0.5797484
00000000: 1eab 1d3f 885a ecbe 546d 5bbf fc7b d1be
00000010: f090 e13e 908c 94be 646a 14bf

decoder.4.bias f4 [7]
-0.24140827 0.631779 -0.3984456 -0.12589206 -0.76026756 -0.1638892 -0.5182475
00000000: bb33 77be 45bc 213f 1001 ccbe d9e9 00be
00000010: e5a0 42bf 92d2 27be deab 04bf
